…
(21770, 701) (21770,)
------
(21770, 701) (21770,)
(21770, 701) (21770, 1)
[ 245.  366.  279. ...,  301.  487.  193.] (21770,) (21770, 701)
DATA IS SHUFFLED AND AUGMENTED
------------------------------------------
(21770, 701)
(21770,)
(653, 701)
(653,)
(21770, 701) (653, 701)
DATA IS NORMALISED AND READY FOR TRAINING
DATA IS ALSO SAVED
-------------------------------------------------
step completed
(21770, 701)
Information on dataset
x_train (21770, 1, 701)
targets_train (21770,)
x_valid (653, 1, 701)
targets_valid (653,)
x_train shape[1] 1
x_train shape[2] 701
DATA RESHAPED
--------------
Net(
  (conv_1): Conv1d(1, 16, kernel_size=(21,), stride=(1,))
  (conv_1_bn): BatchNorm1d(16, eps=1e-05, momentum=0.1, affine=True, track_running_stats=True)
  (maxpool_1): MaxPool1d(kernel_size=2, stride=2, padding=0, dilation=1, ceil_mode=False)
  (conv_2): Conv1d(16, 32, kernel_size=(11,), stride=(1,))
  (conv_2_bn): BatchNorm1d(32, eps=1e-05, momentum=0.1, affine=True, track_running_stats=True)
  (maxpool_2): MaxPool1d(kernel_size=2, stride=2, padding=0, dilation=1, ceil_mode=False)
  (conv_3): Conv1d(32, 64, kernel_size=(5,), stride=(1,))
  (conv_3_bn): BatchNorm1d(64, eps=1e-05, momentum=0.1, affine=True, track_running_stats=True)
  (maxpool_3): MaxPool1d(kernel_size=2, stride=2, padding=0, dilation=1, ceil_mode=False)
  (l_1): Linear(in_features=5120, out_features=2048, bias=True)
  (l_1_bn): BatchNorm1d(2048, eps=1e-05, momentum=0.1, affine=True, track_running_stats=True)
  (l_out): Linear(in_features=2048, out_features=653, bias=True)
  (l_2_bn): BatchNorm1d(653, eps=1e-05, momentum=0.1, affine=True, track_running_stats=True)
  (dropout1d): Dropout(p=0.5)
)
torch.Size([5, 653]) tensor([[0.0027, 0.0009, 0.0009,  ..., 0.0013, 0.0006, 0.0029],
        [0.0021, 0.0089, 0.0022,  ..., 0.0012, 0.0027, 0.0012],
        [0.0028, 0.0006, 0.0017,  ..., 0.0012, 0.0027, 0.0013],
        [0.0002, 0.0011, 0.0014,  ..., 0.0015, 0.0013, 0.0006],
        [0.0010, 0.0008, 0.0008,  ..., 0.0013, 0.0006, 0.0013]],
…
